MiniProject2/models/model.pth (torch, 432232 bytes, 8 tensors)

encoder.0.weight f4 [32, 3, 5, 5]
-0.06545862 -0.0033625134 -0.16148056 -0.15198363 -0.11111499 -0.034582864 -0.068643376 0.024254698
-0.07781185 -0.036401898 -0.10078347 -0.08919991 -0.17718837 -0.14321801 -0.11355516 -0.060604777
-0.0193876 0.004309032 -0.1430243 -0.11439996 -0.021094097 0.033058316 -0.08634902 0.024049956
-0.08068506 -0.051928416 0.039791394 -0.17288177 -0.1389418 -0.095164776 -0.11001372 0.03408562
-0.14132766 -0.11985595 -0.14685203 -0.17345308 -0.13320902 0.033163767 -0.014441928 -0.009317908
-0.058326203 -0.123690225 -0.04486308 -0.17199142 -0.14705677 -0.12220578 0.010407533 0.005505655
-0.11318908 -0.06588794 0.008329274 0.048525102 -0.021698782 -0.052533355 0.009691802 -0.13463895
-0.045949508 -0.15794308 -0.1486694 -0.12763406 -0.014770336 -0.021136232 -0.13623749 -0.032717254
-0.003338621 -0.080388695 -0.06144048 -0.038878314 0.0063612214 0.046311703 -0.15260229 -0.105587155
-0.01750995 0.033110697 0.0382462 0.07704205 -0.0018635138 -0.12525956 -0.014233439 -0.097102396
-0.1324392 0.07777006 0.062970914 -0.14001922 -0.0032304244 -0.04426483 -0.04381069 -0.07766854
0.01958649 -0.0932223 0.017522374 0.0335906 0.0578554 0.01836005 -0.13911273 -0.09972036
0.03284399 -0.0006477845 -0.114901565 -0.0913265 0.08387484 0.053052757 -0.07510533 -0.053825844
-0.13476779 -0.026810467 -0.111688055 -0.11380395 -0.031103695 -0.0074121505 -0.0720087 0.0438015
-0.09498571 0.08005018 0.054397356 -0.12208851 -0.05344844 -0.019501664 -0.007873395 0.0026536626
0.020592155 -0.017801166 -0.08106255 0.029908722 -0.1355063 -0.093042925 -0.05350711 -0.080852576
-0.06500742 -0.119262256 -0.04914206 0.00010656088 -0.09980327 -0.030510766 0.058065027 -0.036431532
-0.021346288 -0.03451853 -0.0011952291 0.048843995 0.08482507 0.04878241 0.0850789 -0.032910984
-0.12830375 -0.07930244 0.054067925 -0.0253088 -0.08196486 -0.11307061 -0.16096553 -0.15032513
-0.07626934 0.010497642 0.009591933 -0.16428809 0.019143289 -0.14321142 -0.07725266 -0.09965918
-0.075208984 -0.07556713 -0.15647297 -0.15254998 -0.070908345 -0.051516052 -0.10545334 -0.009472267
-0.15682319 -0.060607355 0.04853206 -0.10011322 0.051258758 -0.011173532 -0.15708904 0.020141939
-0.06621162 -0.10441752 0.03947424 -0.14617972 -0.04054649 -0.07707762 0.029582862 -0.020638052
0.0026101258 -0.012195276 -0.0806847 -0.077163786 -0.14803225 0.00969519 0.038669966 0.026006356
-0.13442676 -0.04776736 -0.13425842 -0.1165797 -0.12029985 -0.013550871 -0.121804774 -0.055430945
-0.04798486 0.021709612 -0.1399609 -0.13191974 -0.11974601 0.027919723 -0.0943129 0.044692803
-0.010915294 -0.03807463 -0.05382811 -0.07569905 -0.03828084 -0.079090476 -0.053511027 -0.03827777
-0.14332171 -0.11349157 0.04037515 -0.14639765 -0.06130754 0.06121211 -0.011299961 -0.049722243
-0.15291996 0.03298239 -0.10646041 -0.05698891 -0.0629547 -0.041317053 -0.022943689 0.071040235
-0.009782518 0.07922644 0.046429724 -0.09720349 0.02759393 -0.1058175 -0.07313298 0.009762795
0.013922243 0.062430404 -0.061367605 -0.024012705 0.035243757 -0.13588592 0.05927255 -0.11969285
-0.02261795 -0.043845963 -0.084935814 -0.008853037 0.071372055 -0.057867777 -0.09267221 -0.066813335
00000000: 2b0f 86bd 9d5d 5cbb 295b 25be 99a1 1bbe
00000010: 4290 e3bd c3a6 0dbd e694 8cbd cab1 c63c
00000020: d25b 9fbd 281a 15bd 9067 cebd 71ae b6bd
00000030: de70 35be bea7 12be 9c8f e8bd b73c 78bd
00000040: bed2 9ebc c832 8d3b f674 12be 874a eabd
00000050: 87cd acbc 2868 073d c1d7 b0bd 6a04 c53c
00000060: 353e a5bd e4b2 54bd 4dfc 223d eb07 31be
00000070: c246 0ebe c0e5 c2bd e04e e1bd 5d9d 0b3d
00000080: 33b8 10be 0977 f5bd 6160 16be af9d 31be
00000090: f267 08be bbd6 073d d69d 6cbc 24aa 18bc
000000a0: 75e7 6ebd 4d51 fdbd 59c2 37bd 851e 30be
000000b0: 0d96 16be 0647 fabd 5b84 2a3c c868 b43b
000000c0: adcf e7bd 42f0 86bd 8277 083c 42c2 463d
000000d0: a5c1 b1bc 372d 57bd 5dca 1e3c cbde 09be
000000e0: 8d35 3cbd d5bb 21be cb3c 18be 81b2 02be
000000f0: 48ff 71bc e425 adbc d781 0bbe 8702 06bd
00000100: c4cc 5abb d4a2 a4bd 03a9 7bbd de3e 1fbd
00000110: cb71 d03b 57b1 3d3d c643 1cbe 143e d8bd
00000120: 0771 8fbc 159f 073d 0ca8 1c3d 39c8 9d3d
00000130: 2641 f4ba 0b44 00be 5f33 69bc 9fdd c6bd
00000140: 249e 07be e945 9f3d e5f6 803d 3361 0fbe
00000150: 87b5 53bb 0a4f 35bd d772 33bd af10 9fbd
00000160: d973 a03c 55eb bebd 158b 8f3c 4c96 093d
00000170: c9f9 6c3d d167 963c 9173 0ebe 303a ccbd
00000180: 6b87 063d 15d0 29ba 8351 ebbd 6309 bbbd
00000190: 92c6 ab3d d94d 593d d3d0 99bd 7d78 5cbd
000001a0: 9100 0abe a0a1 dbbc b5bc e4bd 0c12 e9bd
000001b0: 2dcd febc a0e1 f2bb 4c79 93bd 3469 333d
000001c0: de87 c2bd 59f1 a33d c3cf 5e3d 8a09 fabd
000001d0: c0ec 5abd f4c1 9fbc 6aff 00bc 12e9 2d3b
000001e0: e1b0 a83c c0d3 91bc 1f04 a6bd 2303 f53c
000001f0: 2ac2 0abe 4a8d bebd 452a 5bbd 0996 a5bd
00000200: 9c22 85bd c53f f4bd 2f49 49bd 7079 df38
00000210: a865 ccbd b7f1 f9bc 98d5 6d3d 3b39 15bd
00000220: 69de aebc 4d63 0dbd 3ca9 9cba a410 483d
00000230: c4b8 ad3d 10d0 473d d93d ae3d abcd 06bd
00000240: 0f62 03be 5169 a2bd 5476 5d3d 6754 cfbc
00000250: 31dd a7bd 9091 e7bd 26d4 24be d5ee 19be
00000260: 1a33 9cbd 4dfe 2b3c 7c27 1d3c 233b 28be
00000270: 63d2 9c3c 04a6 12be a536 9ebd 1d1a ccbd
00000280: 2b07 9abd f1c2 9abd 733a 20be 1036 1cbe
00000290: 6538 91bd 7f02 53bd ecf7 d7bd 9131 1bbc
000002a0: 4296 20be 6b3f 78bd 8ec9 463d 2908 cdbd
000002b0: b4f4 513d 3111 37bc f3db 20be b500 a53c
000002c0: f599 87bd dad8 d5bd beaf 213d 23b0 15be
000002d0: 1414 26bd dfda 9dbd c257 f23c 2211 a9bc
000002e0: a50e 2b3b b2ce 47bc 053e a5bd 0c08 9ebd
000002f0: c495 17be 93d8 1e3c 6664 1e3d 480b d53c
00000300: 2ba7 09be b5a7 43bd 0a7b 09be 56c1 eebd
00000310: c55f f6bd 7904 5ebc c874 f9bd 8f0b 63bd
00000320: c68b 44bd 5bd8 b13c e951 0fbe f815 07be
00000330: 653d f5bd e7b7 e43c 1f27 c1bd cd0f 373d
00000340: 10d6 32bc 25f4 1bbd dd7a 5cbd 1b08 9bbd
00000350: 5fcc 1cbd 30fa a1bd 612e 5bbd 27c9 1cbd
00000360: edc2 12be 456e e8bd 6a60 253d 44e9 15be
00000370: 9d1d 7bbd 8db9 7a3d 7923 39bc 8da9 4bbd
00000380: 0d97 1cbe 8b18 073d ea07 dabd 346d 69bd
00000390: 65ee 80bd 123c 29bd 67f4 bbbc 8b7d 913d
000003a0: db46 20bc 7941 a23d 182d 3e3d a012 c7bd
000003b0: aa0c e23c d8b6 d8bd bec6 95bd 21f4 1f3c
000003c0: 1f1a 643c 06b7 7f3d 995c 7bbd 4bb6 c4bc
000003d0: c25b 103d ae25 0bbe c6c7 723d 8621 f5bd
000003e0: 4749 b9bc d397 33bd d4f2 adbd 540c 11bc
000003f0: 832b 923d c306 6dbd edca bdbd 6ed5 88bd

encoder.0.bias f4 [32]
0.05561075 -0.024466066 -0.12246476 0.04208688 -0.048007786 -0.016067315 -0.112473436 -0.14119995
-0.12971957 -0.036433164 -0.10766384 0.069679506 -0.023199886 -0.06919849 0.02003123 -0.15012795
-0.113324486 0.019423388 -0.14483969 -0.0054740123 -0.017630082 -0.120236374 -0.13883038 0.012757812
0.030739596 -0.06974461 -0.12706177 -0.119572096 -0.011861522 -0.020177227 0.006112287 -0.003545687
00000000: 19c8 633d 0f6d c8bc cece fabd 4b63 2c3d
00000010: d0a3 44bd 9a9f 83bc 7958 e6bd b896 10be
00000020: 35d5 04be f13a 15bd dc7e dcbd 21b4 8e3d
00000030: b00d bebc f0b7 8dbd 8918 a43c 24bb 19be
00000040: ab16 e8bd cc1d 9f3c db50 14be 585f b3bb
00000050: f66c 90bc 7d3e f6bd 8d29 0ebe 2406 513c
00000060: 9bd1 fb3c 43d6 8ebd 7b1c 02be 37e2 f4bd
00000070: d456 42bc b64a a5bc 9449 c83b c25e 68bb

encoder.2.weight f4 [64, 32, 5, 5]
-0.054886542 -0.034375377 -0.018738179 -0.02358893 -0.020906799 -0.06496588 -0.06510065 -0.056943692
-0.042583764 -0.03872224 -0.056184772 -0.075870275 -0.07970894 -0.018996105 -0.06253883 -0.057812266
-0.07470121 -0.07056109 -0.045267902 -0.038142152 -0.06701014 -0.06604667 -0.025026277 -0.07124192
-0.07941142 -0.058537576 -0.019380294 -0.045335487 -0.04814585 -0.057433344 -0.030918581 -0.07053583
-0.02905163 -0.044677395 -0.0490999 -0.048141114 -0.0748098 -0.02676121 -0.034460157 -0.08068304
-0.085928604 -0.062119547 -0.029536268 -0.07043608 -0.020262606 -0.07079708 -0.08496009 -0.03747357
-0.074394986 -0.05860317 -0.01102747 -0.0028093068 -0.03080769 -0.084471464 -0.03741569 -0.0040063066
-0.02132742 -0.00090066553 -0.03226997 -0.039706167 0.016790356 0.034288194 -0.028803043 -0.004287089
0.019187164 0.03240178 -0.025154335 0.015024686 0.01459695 0.021314703 -0.024374543 0.025230154
-0.015399503 -0.021762935 0.0070200553 -0.023082025 -0.07644584 -0.03415593 -0.057081245 -0.041745123
-0.025453312 -0.043433182 -0.082383156 -0.063677184 -0.046015248 -0.08285835 -0.04715501 -0.07201739
-0.060060352 -0.040384434 -0.08148757 -0.07573147 -0.03690705 -0.088000566 -0.028701512 -0.08029469
-0.053602144 -0.045774944 -0.03908183 -0.07497661 -0.048275467 -0.037809774 -0.022708729 -0.07963997
-0.070611015 -0.04273376 -0.054168344 -0.07689208 -0.08279019 -0.08442638 -0.077773176 -0.06808653
-0.077584065 -0.08404871 -0.050273545 -0.03229897 -0.069702916 -0.04949789 -0.053469192 -0.036507066
-0.077552505 -0.051354785 -0.020032842 -0.02779251 -0.08807461 -0.05835572 -0.052703768 -0.06470754
-0.0762613 -0.077634506 -0.029540872 -0.0644795 -0.0553086 -0.042659 -0.0747341 -0.049882047
-0.03200354 -0.07370519 -0.04274716 -0.054240942 -0.0335937 -0.029540414 -0.043653376 -0.05196506
-0.083468296 -0.03895646 -0.03147839 -0.0658753 -0.08813916 -0.02438262 -0.061332226 -0.04595971
-0.06297203 -0.030486207 -0.018552009 -0.030871248 -0.064284965 -0.028256675 -0.035782333 -0.049583994
-0.081511386 -0.06821468 -0.08801344 -0.029386496 -0.018084908 -0.03243836 -0.041736625 -0.044677414
-0.018998768 -0.07095775 -0.06490302 -0.08477814 -0.05653435 -0.05060812 -0.043355152 -0.07762939
-0.05712451 -0.082166046 -0.08179265 -0.048424885 -0.08754535 -0.043618806 -0.08560242 -0.07763429
-0.060369253 -0.086772 -0.02447897 -0.024064455 -0.07150018 -0.045626864 -0.034946136 -0.041798096
-0.05776912 -0.08638058 -0.027324788 -0.08404311 -0.059580877 -0.050839923 -0.06467702 -0.065964386
-0.08358857 -0.0510839 -0.05704648 -0.022209318 -0.06467188 -0.025702287 -0.051355064 -0.06891427
-0.061439026 -0.057043385 -0.052661315 -0.058851264 -0.042534664 -0.023913538 -0.04747183 -0.040213607
-0.031184293 -0.04539833 -0.036728185 -0.034478724 -0.019923244 -0.085263416 -0.040890947 -0.054612797
-0.059357572 -0.066664316 -0.031777687 -0.020690719 -0.08188647 -0.033931553 -0.028654078 -0.046854146
-0.05261685 -0.02582649 -0.051985104 -0.061851826 -0.055644136 -0.041690104 -0.04418252 -0.05494087
-0.041872844 -0.043511413 -0.08167325 -0.044223614 -0.031401377 -0.04897873 -0.056260467 -0.025950044
-0.08392263 -0.0691708 -0.06901361 -0.022484468 -0.08722978 -0.049526855 -0.08728166 -0.054195933
00000000: b6d0 60bd 32cd 0cbd cf80 99bc 923d c1bc
00000010: bc44 abbc d50c 85bd 7d53 85bd ca3d 69bd
00000020: 506c 2ebd 369b 1ebd 0122 66bd e061 9bbd
00000030: 713e a3bd b89d 9bbc 5c14 80bd 8ecc 6cbd
00000040: f3fc 98bd 5582 90bd d66a 39bd f23a 1cbd
00000050: 9d3c 89bd 7a43 87bd e803 cdbc 49e7 91bd
00000060: 74a2 a2bd 19c5 6fbd 6cc3 9ebc b4b1 39bd
00000070: 9534 45bd 3a3f 6bbd f748 fdbc 1775 90bd
00000080: affd edbc a5ff 36bd fa1c 49bd 9e2f 45bd
00000090: e135 99bd 533a dbbc 1826 0dbd 263d a5bd
000000a0: 56fb afbd 1171 7ebd 0bf6 f1bc cb40 90bd
000000b0: c4fd a5bc 0ffe 90bd 8eff adbd e37d 19bd
000000c0: 665c 98bd e109 70bd 90ac 34bc 591c 38bb
000000d0: 6960 fcbc 60ff acbd 3241 19bd 5647 83bb
000000e0: d7b6 aebc a41a 6cba 842d 04bd efa2 22bd
000000f0: ee8b 893c c771 0c3d 5cf4 ebbc b67a 8cbb
00000100: 662e 9d3c bbb7 043d 7710 cebc 1a2a 763c
00000110: 0c28 6f3c 2c9c ae3c 1fad c7bc 78af ce3c
00000120: 324e 7cbc 2f48 b2bc 7e08 e63b 8416 bdbc
00000130: a38f 9cbd 17e7 0bbd 06ce 69bd effc 2abd
00000140: 7783 d0bc fee6 31bd 80b8 a8bd 2f69 82bd
00000150: 7c7a 3cbd a3b1 a9bd 9d25 41bd da7d 93bd
00000160: d801 76bd 266a 25bd f5e2 a6bd 1a19 9bbd
00000170: d92b 17bd a439 b4bd 6f1f ebbc 8b71 a4bd
00000180: ec8d 5bbd 827e 3bbd 4514 20bd 568d 99bd
00000190: 7fbc 45bd 6cde 1abd a807 babc 481a a3bd
000001a0: 829c 90bd 9809 2fbd a0df 5dbd 9879 9dbd
000001b0: e78d a9bd bde7 acbd 8b47 9fbd f370 8bbd
000001c0: 65e4 9ebd bb21 acbd a2eb 4dbd ed4b 04bd
000001d0: 67c0 8ebd 4dbe 4abd 8302 5bbd 6f88 15bd
000001e0: d9d3 9ebd 6559 52bd ea1b a4bc 1ead e3bc
000001f0: 7660 b4bd 6806 6fbd e8df 57bd 6385 84bd
00000200: e22e 9cbd d7fe 9ebd b3ff f1bc d40d 84bd
00000210: 458b 62bd 34bb 2ebd 310e 99bd 1e51 4cbd
00000220: 2516 03bd bff2 96bd a517 2fbd c02b 5ebd
00000230: 8c99 09bd bdfe f1bc e2cd 32bd 51d9 54bd
00000240: 6df1 aabd cf90 1fbd 7cef 00bd a1e9 86bd
00000250: 4e82 b4bd 0fbe c7bc 8037 7bbd 4040 3cbd
00000260: 7bf7 80bd 36be f9bc 62fa 97bc b3e5 fcbc
00000270: d6a7 83bd 8b7a e7bc 7f90 12bd 9618 4bbd
00000280: 71ef a6bd 23b4 8bbd 6440 b4bd f3bb f0bc
00000290: cd26 94bc 16de 04bd 06f4 2abd aaff 36bd
000002a0: 4ea3 9bbc 4c52 91bd e0eb 84bd 29a0 adbd
000002b0: 9090 67bd 764a 4fbd 2c95 31bd 28fc 9ebd
000002c0: 64fb 69bd ac46 a8bd e882 a7bd 2c59 46bd
000002d0: fa4a b3bd a2a9 32bd 5250 afbd bafe 9ebd
000002e0: c045 77bd 85b5 b1bd 1f88 c8bc d222 c5bc
000002f0: b06e 92bd 3ce3 3abd ae23 0fbd 7b34 2bbd
00000300: 509f 6cbd 4de8 b0bd 3cd8 dfbc cb1e acbd
00000310: 140b 74bd 863d 50bd 6375 84bd 5618 87bd
00000320: 7c30 abbd 5a3d 51bd 92a9 69bd 51f0 b5bc
00000330: b172 84bd 9a8d d2bc b059 52bd ed22 8dbd
00000340: 7da7 7bbd 53a6 69bd 64b3 57bd 060e 71bd
00000350: d438 2ebd 53e6 c3bc d271 42bd 06b7 24bd
00000360: 3476 ffbc 99f3 39bd 4b70 16bd 9039 0dbd
00000370: 1236 a3bc 969e aebd 447d 27bd abb1 5fbd
00000380: ed20 73bd 4d87 88bd 5229 02bd 957f a9bc
00000390: 18b4 a7bd d0fb 0abd f5bb eabc 22ea 3fbd
000003a0: c484 57bd 1392 d3bc 55ee 54bd 5758 7dbd
000003b0: 1beb 63bd 3ec3 2abd bbf8 34bd ad09 61bd
000003c0: dc82 2bbd 0639 32bd 4e44 a7bd d223 35bd
000003d0: bb9e 00bd ec9d 48bd 6071 66bd 3095 d4bc
000003e0: a1df abbd 6ca9 8dbd 0257 8dbd 5931 b8bc
000003f0: 87a5 b2bd acdc 4abd bac0 b2bd 8efc 5dbd

encoder.2.bias f4 [64]
-0.07300718 -0.035813328 -0.021368578 -0.0110493 -0.05262272 -0.015552982 -0.086409256 -0.050134245
-0.04942437 -0.026992863 0.033494458 -0.032057412 -0.04729711 -0.057215095 0.03518235 -0.054507613
-0.014724174 -0.03877718 -0.0816797 -0.064975336 -0.0013057848 -0.012987081 0.020732004 -0.03017378
0.020130355 0.024670169 -0.049023353 -0.0050218757 -0.025723709 -0.031102838 -0.033750158 -0.018099343
-0.023441797 -0.019746859 -0.06907037 -0.026709676 -0.046510365 -0.041202225 -0.022422139 -0.0435128
-0.0673112 -0.027249712 -0.020348098 0.03439357 -0.04989584 -0.035585634 -0.055905268 -0.037423346
0.03765344 -0.018666254 -0.039807916 -0.037236787 -0.060477335 -0.0464811 -0.07316937 -0.044407163
-0.077035874 -0.022285827 -0.02707181 -0.025995018 -0.05137014 -0.06815753 0.035596415 -0.084286235
00000000: ca84 95bd ffb0 12bd 280d afbc 2008 35bc
00000010: ec8a 57bd efd1 7ebc 56f7 b0bd 9159 4dbd
00000020: 3571 4abd 2320 ddbc 7c31 093d a24e 03bd
00000030: 9dba 41bd 605a 6abd 5e1b 103d 6043 5fbd
00000040: a93d 71bc d2d4 1ebd b047 a7bd ca11 85bd
00000050: de26 abba c4c7 54bc 2ad6 a93c 012f f7bc
00000060: 6ae8 a43c 1819 ca3c b6cc 48bd 8c8e a4bb
00000070: 87ba d2bc 61cb febc 9b3d 0abd 1345 94bc
00000080: 0309 c0bc 2ac4 a1bc c474 8dbd 40ce dabc
00000090: a781 3ebd aac3 28bd a2ae b7bc 7a3a 32bd
000000a0: 74da 89bd ca3a dfbc 0eb1 a6bc 46e0 0c3d
000000b0: 955f 4cbd 3ec2 11bd ecfc 64bd 3949 19bd
000000c0: 7e3a 1a3d f9e9 98bc a00d 23bd 9a85 18bd
000000d0: 15b7 77bd f762 3ebd d3d9 95bd 49e4 35bd
000000e0: fcc4 9dbd c490 b6bc b3c5 ddbc 81f3 d4bc
000000f0: 7f69 52bd 2d96 8bbd 8ccd 113d 439e acbd

decoder.0.weight f4 [64, 32, 5, 5]
0.07114643 0.06265844 0.06290826 0.030867046 0.01962307 0.03882467 0.06571972 0.03574974
0.022358684 0.07528501 0.058265544 0.018729722 0.06157001 0.07322485 0.024879657 0.03828822
0.073631085 0.050742544 0.05563647 0.021765828 0.07576188 0.020065613 0.042293448 0.03210483
0.027178105 0.08310257 0.082751065 0.033737633 0.04911302 0.056968544 0.082007535 0.023656059
0.038143758 0.04503211 0.069106996 -0.044866882 -0.034540277 0.0604118 0.05888696 0.021881014
-0.052164298 -0.08515903 0.045378 0.07136296 0.025234677 -0.08826741 -0.06854341 0.058164008
0.06025756 0.05695277 0.067796156 0.036289785 0.08354317 0.020896982 0.04272965 0.081435524
0.07187977 0.075179614 0.06120596 0.045606013 0.025828086 0.037370395 0.07405948 0.043525085
0.024005383 0.02952402 0.021256773 0.033219658 0.042362403 0.031171901 0.049800515 0.08171961
0.033959378 0.085249655 0.08304305 0.031510334 -0.012085677 -0.029903978 0.05364505 0.069336034
-0.0016335866 -0.0061407792 0.015192899 0.03396502 0.030844416 0.015132448 0.081940584 0.04962249
0.042082816 0.06330916 -0.019994201 0.04754203 0.019251963 0.085074715 0.047586896 0.009259364
0.043775834 0.01908102 0.04184729 0.08236614 0.07198834 0.023437312 0.06616505 0.05813881
0.037633862 0.029474335 0.032325108 0.023908442 0.07898995 0.06031641 0.03240868 0.07415392
0.057303548 0.06941443 0.06398459 0.043038473 0.0484486 0.081713766 0.049943864 0.035004076
0.06122652 0.08443448 0.032071624 0.061518148 0.086098574 -0.03110114 -0.07167248 -0.04508316
-0.03423503 -0.045105882 -0.041925725 -0.020687854 -0.06673568 -0.045943834 -0.03901963 -0.030429037
-0.041460153 -0.023705116 -0.03337482 -0.06026817 -0.032993134 -0.046172436 -0.08281178 -0.01986101
-0.0628803 -0.023930563 -0.017906968 -0.04096458 -0.02015542 -0.045211222 -0.06579166 -0.039806217
-0.038956717 -0.057296954 -0.02238013 -0.023065792 -0.036016926 -0.051668566 -0.0579608 -0.06343228
-0.038768563 -0.07138887 -0.081642464 -0.05144819 -0.027143931 -0.06779543 -0.018878488 -0.031948697
-0.05968283 -0.05542808 -0.05449029 -0.03592408 -0.07218816 -0.040505275 -0.07425081 0.08351341
0.047356468 0.083882555 0.02611664 0.057585113 0.070216 0.047409747 0.087780096 0.07383927
0.0649692 0.07615669 0.031626448 0.037900653 0.072836064 0.01793637 0.020854084 0.044586577
0.07820757 0.052082118 0.036197063 0.04910616 0.08089156 0.033050787 0.080466986 0.07542593
-0.06819937 -0.08153716 -0.058560453 -0.07880732 -0.07764737 -0.020894844 -0.08217591 -0.02906381
-0.055020925 -0.06683587 -0.051391333 -0.030962095 -0.027653309 -0.0837658 -0.07438019 -0.05231295
-0.06422175 -0.02508934 -0.054300033 -0.05836066 -0.04940746 -0.07421795 -0.029742159 -0.04285735
-0.033750333 0.06147775 0.08298072 0.05891323 0.06589756 0.032674525 0.04439094 0.051638767
0.08805704 0.057757713 0.07261334 0.03126047 0.028922291 0.04821796 0.04767573 0.045631003
0.042399514 0.03633032 0.0703716 0.06394334 0.06941955 0.051235154 0.079931356 0.03756964
0.049223643 0.045301177 -0.08069572 -0.032302827 -0.047794655 -0.08369873 -0.049163505 -0.047784466
00000000: 38b5 913d 1153 803d 0cd6 803d e3dc fc3c
00000010: 8fc0 a03c 9e06 1f3d 1098 863d 526e 123d
00000020: 8f29 b73c 072f 9a3d daa7 6e3d 136f 993c
00000030: d630 7c3d e9f6 953d 6cd0 cb3c 1cd4 1c3d
00000040: e5cb 963d 6ad7 4f3d 11e3 633d 404e b23c
00000050: 0b29 9b3d a460 a43c e53b 2d3d 5b80 033d
00000060: 9ea4 de3c ae31 aa3d 6479 a93d 7930 0a3d
00000070: bc2a 493d d957 693d 91f3 a73d 5aca c13c
00000080: a13c 1c3d 9773 383d f887 8d3d 56c6 37bd
00000090: 1b7a 0dbd 5d72 773d 7433 713d d03f b33c
000000a0: 3baa 55bd dc67 aebd 48de 393d be26 923d
000000b0: f4b8 ce3c 8bc5 b4bd 7d60 8cbd 623d 6e3d
000000c0: a2d0 763d 4f47 693d b6d8 8a3d 99a4 143d
000000d0: ae18 ab3d 2630 ab3c 4905 2f3d abc7 a63d
000000e0: b335 933d c5f7 993d 1ab3 7a3d 5fcd 3a3d
000000f0: 6c95 d33c b311 193d 7fac 973d 5c47 323d
00000100: f0a6 c43c 5cdc f13c af22 ae3c 5611 083d
00000110: 3384 2d3d 375c ff3c a0fb 4b3d 9c5c a73d
00000120: fd18 0b3d 5f97 ae3d 7912 aa3d fb10 013d
00000130: 0103 46bc 30f9 f4bc e9ba 5b3d 0d00 8e3d
00000140: 121e d6ba 9738 c9bb a3eb 783c e81e 0b3d
00000150: 6ead fc3c 16ee 773c 77d0 a73d f440 4b3d
00000160: 085f 2c3d 3ca8 813d e1ca a3bc 6fbb 423d
00000170: 4bb6 9d3c a73b ae3d 7aea 423d 96b4 173c
00000180: 4a4e 333d cd4f 9c3c 1068 2b3d 94af a83d
00000190: 9f6e 933d 9bff bf3c 8b81 873d f622 6e3d
000001a0: f725 1a3d 2974 f13c 5567 043d a3db c33c
000001b0: 7cc5 a13d 570e 773d f7be 043d 03de 973d
000001c0: 20b7 6a3d 2729 8e3d 5a0a 833d 1c49 303d
000001d0: 0a72 463d 8c59 a73d f091 4c3d 6f60 0f3d
000001e0: a9c8 7a3d fceb ac3d 895d 033d 74fa 7b3d
000001f0: 7354 b03d d1c7 febc 05c9 92bd 1fa9 38bd
00000200: 083a 0cbd f2c0 38bd 4fba 2bbd 9379 a9bc
00000210: b7ac 88bd 9a2f 3cbd 0cd3 1fbd 5146 f9bc
00000220: 1fd2 29bd 3b31 c2bc 09b4 08bd c2db 76bd
00000230: cf23 07bd 4f1f 3dbd 3999 a9bd 8fb3 a2bc
00000240: 63c7 80bd 070a c4bc a2b1 92bc 7aca 27bd
00000250: fb1c a5bc 672f 39bd c7bd 86bd d80b 23bd
00000260: 1491 1fbd 36b0 6abd 8956 b7bc 79f4 bcbc
00000270: 7c86 13bd 6ba2 53bd 4e68 6dbd c9e8 81bd
00000280: c9cb 1ebd 5434 92bd 2a34 a7bd 56bb 52bd
00000290: f35c debc 55d8 8abd 0fa7 9abc a3dc 02bd
000002a0: fc75 74bd 8e08 63bd 3631 5fbd 2125 13bd
000002b0: 63d7 93bd dce8 25bd cf10 98bd 1409 ab3d
000002c0: dbf8 413d 9eca ab3d 90f2 d53c 5ede 6b3d
000002d0: 68cd 8f3d b930 423d 0dc6 b33d 0b39 973d
000002e0: 920e 853d 0af8 9b3d bc8a 013d b73d 1b3d
000002f0: 132b 953d 4bef 923c 2fd6 aa3c 6aa0 363d
00000300: 4a2b a03d 0f54 553d 5f43 143d 8a23 493d
00000310: 79aa a53d 4360 073d e0cb a43d e978 9a3d
00000320: 1cac 8bbd f4fc a6bd 16dd 6fbd bb65 a1bd
00000330: 9605 9fbd aa2b abbc d84b a8bd 3a17 eebc
00000340: 9f5d 61bd 3fe1 88bd b87f 52bd 38a4 fdbc
00000350: 3189 e2bc 678d abbd a454 98bd 1b46 56bd
00000360: b186 83bd 2988 cdbc b669 5ebd 960b 6fbd
00000370: 7a5f 4abd 95ff 97bd d4a5 f3bc 308b 2fbd
00000380: ca3d 0abd 18d0 7b3d ccf1 a93d 004f 713d
00000390: 4df5 863d b9d5 053d 46d3 353d 2c83 533d
000003a0: 4057 b43d 5a93 6c3d 4eb6 943d fb0a 003d
000003b0: 71ee ec3c 3280 453d a047 433d 93e7 3a3d
000003c0: 1dab 2d3d 1acf 143d fc1e 903d baf4 823d
000003d0: d62b 8e3d f4db 513d 0db3 a33d 9fe2 193d
000003e0: bb9e 493d ba8d 393d cc43 a5bd f84f 04bd
000003f0: 54c4 43bd 3d6a abbd ac5f 49bd a5b9 43bd

decoder.0.bias f4 [32]
0.013731954 -0.017049218 0.01306889 -0.054842737 0.017662436 -0.02093579 -0.017722126 -0.023980241
-0.078151725 -0.03133348 -0.05197682 -0.034687568 -0.046067424 0.12290161 -0.020907976 -0.08075355
-0.08730053 0.026184306 -0.05915787 -0.02889528 0.0045612804 -0.06686869 -0.050785262 -0.019040097
-0.031124488 -0.07123581 -0.054118592 -0.013288561 -0.01596588 0.015481399 -0.0154573405 -0.024469864
00000000: fdfb 603c cdaa 8bbc e61e 563c c7a2 60bd
00000010: d0b0 903c 8981 abbc fe2d 91bc 3672 c4bc
00000020: 030e a0bd 8957 00bd a5e5 54bd 8d14 0ebd
00000030: 32b1 3cbd d7b3 fb3d 3447 abbc 1e62 a5bd
00000040: 9fca b2bd 7880 d63c 864f 72bd cbb5 ecbc
00000050: cb76 953b 74f2 88bd 3504 50bd faf9 9bbc
00000060: c8f8 febc 15e4 91bd 75ab 5dbd 44b8 59bc
00000070: e1ca 82bc b2a5 7d3c c940 7dbc 0675 c8bc

decoder.2.weight f4 [32, 3, 5, 5]
0.020637356 -0.025616273 0.06787918 0.062642045 -0.09252131 0.015259791 -0.0063813785 -0.027957048
0.027913414 -0.047689404 -0.07263523 0.070340715 0.056084827 -0.12963523 0.046436463 -0.09915065
-0.055739094 -0.08373444 -0.08613087 0.032277256 -0.0800708 -0.090769775 -0.023026375 -0.039873775
0.09254521 0.058311123 -0.027950978 -0.02274866 0.019867646 -0.055797447 -0.0103294775 -0.061621986
-0.03027196 0.07862254 0.060185272 0.055026036 -0.10599267 -0.10335775 0.01061375 -0.027288366
0.057451405 0.015996493 0.026940478 -0.11976612 0.065541394 0.021732042 0.02971447 -0.000677488
0.07777846 -0.04866112 0.00751483 -0.13072312 -0.11651976 -0.06937021 0.04286925 -0.081598304
0.03903093 -0.120526604 -0.12107811 -0.060200945 -0.06843271 -0.03863167 -0.07083966 -0.13634416
0.064541385 0.025959956 0.06988915 -0.058619604 -0.12553877 0.035812665 -0.06384372 0.063977964
0.074083984 0.08098347 0.076674916 0.05619091 -0.056688752 -0.019619608 0.02496588 0.04297144
-0.09433208 0.059009545 -0.02924397 0.08493991 0.035423562 0.08740365 0.01863032 -0.02979024
-0.010514216 0.042254712 0.08726453 -0.030920463 0.08206436 -0.10195107 -0.0026373882 0.0023942613
-0.11259823 -0.13266438 0.022162825 -0.11086229 -0.03733144 0.062895335 0.04174593 -0.10332551
-0.120829605 -0.052816205 -0.09196258 -0.070488945 -0.0019623027 -0.070442766 -0.060558036 -0.0011353028
-0.025806738 -0.11639026 0.047904696 -0.11224387 -0.004515643 -0.013737996 -0.0025153204 0.046499327
-0.114939116 -0.03684377 -0.047695063 -0.0073718634 -0.11378716 0.034279123 -0.009944994 0.026724335
-0.121733464 -0.020341948 0.00080338184 -0.11979136 0.0013843537 0.049215443 0.052845757 0.06796979
-0.10937385 -0.010089415 -0.059423063 -0.100351125 0.045784738 -0.03429105 0.0078112753 -0.010145409
0.036615513 -0.1391475 -0.079134054 0.027443668 -0.033134207 0.079552144 0.06840883 -0.12310014
0.05922878 0.083834946 -0.029072776 -0.12299511 -0.024474762 0.052769035 -0.11440791 0.07432194
-0.12553358 -0.009673718 0.027690614 0.0033524958 -0.015997967 -0.13339019 0.022391396 0.06659605
0.06276582 0.06861976 0.08165791 0.03949023 -0.043300062 -0.07964729 -0.09869522 -0.092994995
-0.0026895842 -0.002167592 -0.039956708 0.06153689 -0.014971796 0.061943717 0.034029584 0.063184574
0.045252625 -0.03203362 0.0558308 -0.031435855 0.08249191 -0.13055606 0.07399349 -0.06710771
-0.048208993 0.059492107 0.01773645 -0.120234534 -0.113989785 -0.010736395 0.06289303 0.05875831
0.030279486 0.03359049 -0.1284225 -0.058705308 -0.115817785 -0.07591398 -0.07106132 -0.05072709
-0.12175591 -0.06059013 -0.09131082 -0.116741456 0.066796295 -0.073315434 -0.0075754635 -0.11427975
-0.024540436 0.06959795 -0.07773191 0.059264377 -0.100316204 0.041405536 0.056575175 -0.04592246
-0.020346876 -0.12595384 0.054199733 -0.023833504 0.009848541 -0.06319211 -0.01247216 -0.10863074
0.0068913708 0.06832216 -0.09900639 -0.11589848 -0.07224428 -0.10102433 -0.029295517 0.07452009
0.06645863 0.023302954 -0.008626541 0.022633247 -0.14585786 -0.05495292 -0.019149253 -0.1295418
0.0698229 0.0763439 0.079205975 -0.04922034 -0.044647876 0.0031410065 0.03322236 -0.105272524
00000000: ac0f a93c 38d9 d1bc 3d04 8b3d 794a 803d
00000010: d07b bdbd 3404 7a3c e21a d1bb 2e06 e5bc
00000020: acaa e43c f755 43bd c8c1 94bd cb0e 903d
00000030: 34b9 653d 19bf 04be 2934 3e3d 7f0f cbbd
00000040: ad4e 64bd f67c abbd 6265 b0bd 2835 043d
00000050: 29fc a3bd 81e5 b9bd cfa1 bcbc af52 23bd
00000060: 5888 bd3d a5d7 6e3d 73f9 e4bc 665b babc
00000070: 79c1 a23c dd8b 64bd f83c 29bc 5667 7cbd
00000080: e7fc f7bc db04 a13d d584 763d fb62 613d
00000090: af12 d9bd 3aad d3bd 4be5 2d3c da8b dfbc
000000a0: 2a52 6b3d 140b 833c 47b2 dc3c f147 f5bd
000000b0: 913a 863d 6507 b23c c36b f33c 7399 31ba
000000c0: 504a 9f3d e250 47bd f73e f63b 48dc 05be
000000d0: e9a1 eebd f811 8ebd ab97 2f3d 031d a7bd
000000e0: e5de 1f3d a7d6 f6bd cdf7 f7bd 4495 76bd
000000f0: 7326 8cbd 3e3c 1ebd 6214 91bd ce9d 0bbe
00000100: 462e 843d f9a9 d43c 0b22 8f3d 1c1b 70bd
00000110: 3c8d 00be 4db0 123d 7fc0 82bd e106 833d
00000120: 58b9 973d a9da a53d bd07 9d3d 7128 663d
00000130: 7732 68bd 4db9 a0bc 3f85 cc3c d202 303d
00000140: 2d31 c1bd feb3 713d 0d91 efbc faf4 ad3d
00000150: 4c18 113d af00 b33d 9d9e 983c a90a f4bc
00000160: d143 2cbc 4713 2d3d bfb7 b23d e94c fdbc
00000170: 5c11 a83d b9cb d0bd 08d8 2cbb 0ae9 1c3b
00000180: e799 e6bd 2cd9 07be d08e b53c c50b e3bd
00000190: dae8 18bd 45cf 803d c8fd 2a3d 539c d3bd
000001a0: 8375 f7bd ce55 58bd e156 bcbd 825c 90bd
000001b0: fa99 00bb 4c44 90bd b40b 78bd 71ce 94ba
000001c0: a768 d3bc 045e eebd b737 443d 1de0 e5bd
000001d0: f6f7 93bb 5515 61bc 13d8 24bb 1476 3e3d
000001e0: 3365 ebbd 7ee9 16bd e65b 43bd ac8f f1bb
000001f0: 3e09 e9bd 4468 0c3d 54f0 22bc feec da3c
00000200: 654f f9bd 28a4 a6bc 0b9a 523a 2c55 f5bd
00000210: 3473 b53a 2296 493d cb74 583d bf33 8b3d
00000220: 66ff dfbd 134e 25bc 9965 73bd e484 cdbd
00000230: c788 3b3d c674 0cbd baf5 ff3b ee38 26bc
00000240: 26fa 153d af7c 0ebe 0911 a2bd 8bd1 e03c
00000250: bcb7 07bd 3cec a23d ee19 8c3d ed1b fcbd
00000260: e199 723d a8b1 ab3d 082a eebc dce4 fbbd
00000270: 4c7f c8bc 5824 583d b24e eabd 1a36 983d
00000280: e08b 00be 847e 1ebc 6dd7 e23c 8cb5 5b3b
00000290: 2b0e 83bc 7097 08be 296e b73c 8363 883d
000002a0: 5e8b 803d 8488 8c3d 433c a73d 82c0 213d
000002b0: 685b 31bd 1e1e a3bd b820 cabd 2974 bebd
000002c0: bc43 30bb 290e 0ebb a5a9 23bd 1b0e 7c3d
000002d0: 444c 75bc b2b8 7d3d 9b62 0b3d ea66 813d
000002e0: d15a 393d af35 03bd d6ae 643d e2c2 00bd
000002f0: 85f1 a83d 7db0 05be e689 973d c46f 89bd
00000300: cb76 45bd ffad 733d 084c 913c 863d f6bd
00000310: 7a73 e9bd b4e7 2fbc 10ce 803d 8eac 703d
00000320: af0c f83c 2f96 093d 3081 03be fa74 70bd
00000330: e031 edbd ca78 9bbd 9988 91bd 36c7 4fbd
00000340: 2a5b f9bd 5b2d 78bd 2b01 bbbd 2516 efbd
00000350: 7fcc 883d 6726 96bd 983b f8bb 800b eabd
00000360: 0609 c9bc 5f89 8e3d e831 9fbd 34bf 723d
00000370: 9572 cdbd da98 293d 5fbb 673d 3019 3cbd
00000380: 7eae a6bc 0bfa 00be 8a00 5e3d 7b3e c3bc
00000390: c65b 213c dd6a 81bd 0858 4cbc cb79 debd
000003a0: 02d1 e13b 7dec 8b3d ddc3 cabd 2f5c edbd
000003b0: cff4 93bd d8e5 cebd 27fd efbc fd9d 983d
000003c0: 761b 883d d6e5 be3c 5656 0dbc 5c69 b93c
000003d0: c35b 15be 5016 61bd e5de 9cbc 9ba6 04be
000003e0: 4fff 8e3d 315a 9c3d be36 a23d 449b 49bd
000003f0: b1e0 36bd 58d9 4d3b 2b14 083d 1f99 d7bd

decoder.2.bias f4 [3]
0.11176351 -0.0128306 0.059662163
00000000: 44e4 e43d 7037 52bc 5060 743d
